Python03_Android/AndroidStudioProjects/TFLiteTest/app/src/main/assets/cnn_model.tflite (tflite, 377200 bytes, 10 tensors)

sequential/conv2d/BiasAdd/ReadVariableOp f4 [32]
000000 cf 20 be bc 3c 5d ae bd e6 6b 0f 3d 75 a5 a7 bd
       -0.023209004 -0.08513877 0.03501501 -0.08185855
000010 02 cd 71 bc 17 52 9b bd df 13 18 bd 57 6c 84 bd
       -0.01475835 -0.07584017 -0.037128326 -0.06465977
000020 6f c2 4b bd cb 5e e1 bd 82 d3 b7 bc ce 45 6e bc
       -0.049745973 -0.110044084 -0.022439722 -0.01454301
000030 10 31 1e bd a9 e5 0d be f7 7c 0f 3c c3 ce d7 3d
       -0.03862101 -0.1385714 0.008757821 0.105374835
000040 15 3a 23 bd 28 9d 8f 3a 33 ca 02 be e9 7a 4a bd
       -0.039850313 0.001095687 -0.12772445 -0.049433623
000050 1c 7b 8c bd a5 6b 43 bc 2f d0 fd bb 16 6e cb bd
       -0.06859419 -0.01192752 -0.0077457647 -0.099331066
000060 81 ea 10 be 96 7c 33 bd 18 c1 97 3d 5b da f1 bc
       -0.14151956 -0.043819986 0.074098766 -0.029523065
000070 07 18 6e bd 2e 6f 8f bd 00 2e bd bd 94 ab 56 3b
       -0.058128383 -0.07003628 -0.092372894 0.0032756077

sequential/conv2d_1/BiasAdd/ReadVariableOp f4 [64]
000000 48 97 df bd 8f b4 89 bd 94 d4 9f bd 74 b2 6b bd
       -0.109175265 -0.06723892 -0.07804218 -0.057543233
000010 f9 9d e0 bc c3 08 c1 bd ad 07 89 bd 49 bb ea bc
       -0.027419077 -0.09425499 -0.06690917 -0.028653758
000020 83 39 39 3a 86 e5 5e bd 11 c7 03 bd 29 97 21 bd
       0.000706576 -0.05441811 -0.032172266 -0.0394508
000030 0f ec 5c bc af 58 9f bd 1d 57 c8 bc 4e cb f0 bd
       -0.013484015 -0.07780587 -0.024455601 -0.11757527
000040 ef 42 6c bc 75 92 41 bd 67 f8 25 bb e7 0b 97 bb
       -0.014420255 -0.047258813 -0.0025325061 -0.004609573
000050 93 33 c5 bd 7b a4 2d bd ee 58 9d bb 24 09 16 3d
       -0.096289776 -0.04239319 -0.004801861 0.03662981
000060 b3 77 ed bc 92 07 21 bd c1 f9 1e bd 29 3f 78 bd
       -0.028987741 -0.03931386 -0.038812403 -0.06060711
000070 b3 e6 c7 bd bb 5f 75 bd 38 80 a0 3c 7f 60 02 bc
       -0.09760799 -0.05990575 0.01959239 -0.007957577
000080 ca 66 0d 3d be 97 b0 bd 2b a0 dd bd d6 3d d7 bd
       0.034521855 -0.086226925 -0.10821565 -0.10509841
000090 42 bd 7a 3b 22 2f b2 bc 52 a7 d6 3c ad f6 da bc
       0.003825978 -0.02175099 0.026202831 -0.026728952
0000a0 f2 b2 a8 3c 84 77 49 3d 38 ef 09 3d 72 24 b0 bd
       0.02059314 0.049186245 0.033675402 -0.086007014
0000b0 2e 06 a4 bd 44 3a 42 3d 8e 25 86 3b d2 64 60 bd
       -0.08008991 0.047418848 0.0040938323 -0.05478365
0000c0 db 96 89 bb 49 53 c8 bd c9 95 f1 bd cf f8 e4 bb
       -0.0041988916 -0.097815104 -0.117961474 -0.006987668
0000d0 ed a2 32 bd df eb 3c bd 1d 80 df bc 6a d4 b6 bd
       -0.04361241 -0.04612338 -0.027282769 -0.089272335
0000e0 18 be f9 bd 33 3a 8f bc 3c 89 c4 bd 01 f3 9b bc
       -0.12194461 -0.017483806 -0.09596488 -0.019036772
0000f0 f4 1f 94 3d 25 18 01 be 13 94 90 bd ba 3a b9 3b
       0.07232657 -0.12606867 -0.07059493 0.0056527527

sequential/conv2d_2/BiasAdd/ReadVariableOp f4 [64]
000000 53 fe 64 3d 67 f6 c9 3d 43 24 35 bc 55 2b 9c bd
       0.055906605 0.09861451 -0.011056009 -0.076254524
000010 36 22 ec bc 35 9a a7 3b 3b da c7 bb 2d 78 80 bd
       -0.028824907 0.0051148185 -0.006099013 -0.06272922
000020 37 45 08 3a 14 56 7d bb 51 22 46 bd 83 6e 65 3d
       0.0005198302 -0.0038656043 -0.04837257 0.056013595
000030 4c 4f df 3b e5 04 1c 3d fd ff e1 3c 99 8b 1e bd
       0.006814873 0.038090605 0.027587885 -0.03870735
000040 81 80 32 bc 84 3d 11 bd a8 4d 58 bd c4 04 e1 bc
       -0.0108948955 -0.035459056 -0.052808434 -0.027468093
000050 49 e4 a2 3c f2 92 8e bc 4d c0 b4 bd 41 81 25 bd
       0.019884245 -0.017404053 -0.08825741 -0.04040647
000060 32 66 8f bc f0 44 7d 3d 98 c5 da bc dc 39 5d 3d
       -0.017504785 0.061833322 -0.026705548 0.054010257
000070 20 0e 88 bc 74 4e f7 bc dd aa ce 3c a8 e0 b8 bb
       -0.016608298 -0.030188777 0.025227958 -0.0056420155
000080 17 61 a6 bb 0e c3 10 bd 32 59 0b 3d 82 d2 28 bc
       -0.005077492 -0.03534227 0.03402061 -0.010304095
000090 cb f7 66 bb cd 22 4f bc f3 31 48 3c 41 18 92 3c
       -0.003524291 -0.0126425745 0.01221894 0.01783383
0000a0 02 a4 34 ba 5a 52 b5 3b b1 52 28 3d af a3 de 3c
       -0.0006890894 0.0055334987 0.041094486 0.02717766
0000b0 6b 14 0b 3d e6 af eb bc 89 ee 97 3b 42 b5 d0 3c
       0.03395502 -0.028770398 0.00463659 0.025477055
0000c0 0a 04 3b 3b 46 70 84 bd 44 5d 17 bd c4 3d 08 3d
       0.0028536343 -0.06466727 -0.03695418 0.03326203
0000d0 cc 7b 64 bd 5a 8a ab bc 54 a7 d1 39 d9 22 82 3c
       -0.055782124 -0.020939995 0.00039988256 0.015885757
0000e0 04 44 41 bd 0a ed 83 3b 32 6e 2e bc 3d fa 88 bc
       -0.047184005 0.00402606 -0.01064639 -0.016720885
0000f0 41 1b a7 ba fe e1 b9 3c 10 5c 03 3d 65 82 83 3d
       -0.0012749211 0.02269077 0.03207022 0.06421355

sequential/conv2d/Conv2D f4 [32, 3, 3, 1]
000000 6c f4 29 be cd fc 3e be 59 82 88 bd 70 6c c6 bd
       -0.16597146 -0.18651123 -0.06665487 -0.096886516
000010 73 3d 92 bc 38 94 ca 3d 02 d8 88 3c fb cc bc 3a
       -0.017851567 0.09891552 0.016704563 0.0014404351
000020 20 70 1d 3e 1c bb 12 be cb 8e 02 3c 57 98 74 3d
       0.15374804 -0.14329189 0.007968615 0.059715595
000030 4f 3c 12 be ec 86 b2 3d b8 d7 e1 3d e7 31 12 be
       -0.14280818 0.087171406 0.11027473 -0.14276849
000040 83 c6 ed 3d f1 38 dd 3d 37 47 27 3e 7b d6 b2 3d
       0.11610129 0.10801876 0.1633576 0.08732315
000050 dd 05 9e 3d ff c7 ec bd f6 8c cf 3d fb 60 52 3e
       0.07715962 -0.11561584 0.10134308 0.20544808
000060 3a 2e 92 be 28 6f b5 be 6d 02 9e be 57 e1 e5 bd
       -0.28550893 -0.35436368 -0.30861226 -0.11224621
000070 ea 95 76 3d 70 49 d0 3d 48 4f e2 bd be b9 81 3e
       0.060201563 0.10170257 -0.11050278 0.25337023
000080 65 01 d0 bd 04 2d 12 3e 98 73 03 3e 65 33 a0 be
       -0.10156516 0.14274985 0.12837064 -0.3128921
000090 2c b1 ab 3d 2c 14 23 3d df 94 77 3d ab 7c dd 3d
       0.08383402 0.03981416 0.06044471 0.10814794
0000a0 2b 3e 85 3b a8 fa 36 3e f5 a7 5e be ee 79 57 be
       0.004066249 0.17869055 -0.21743758 -0.21042606
0000b0 46 ba 80 be 92 a8 1f be 62 9f b1 3c 08 2f 81 3d
       -0.25142115 -0.15591648 0.021682445 0.063077986
0000c0 6a dc 4e be eb cf 7a 3d 68 f3 c3 bc f1 e3 17 bd
       -0.20201269 0.061233442 -0.023919776 -0.037082616
0000d0 19 37 07 3e 2f 3b c1 3d c2 b5 59 be ca 56 02 3e
       0.13204612 0.094351165 -0.21260741 0.1272842
0000e0 a7 81 33 3e a4 76 04 3e dd 35 20 3e 1e 1b cc bd
       0.17529927 0.12935883 0.15645547 -0.0996611
0000f0 c7 45 07 3d ec d9 73 be 49 47 41 be 65 13 29 bd
       0.03302553 -0.238136 -0.1887485 -0.04127826
000100 2e 11 1d be ad 44 9d bd 01 a5 35 3e 01 e5 2d 3e
       -0.15338585 -0.076791145 0.17738725 0.1698189
000110 69 bf b9 3d df b7 05 be 5a 75 aa bd de d9 b8 bb
       0.09069712 -0.13058423 -0.08323164 -0.005641206
000120 79 81 98 be f2 61 29 3d 36 23 9a bd 60 a3 44 be
       -0.2978628 0.041353174 -0.07526247 -0.19202948
000130 4f 76 24 3e 6f 23 02 3e 0e bf 7d 3d 2e 20 12 3e
       0.16060756 0.1270883 0.061949782 0.14270088
000140 78 55 5b 3d 5c be 04 3d 45 dd 3d 3d 42 2e 94 3a
       0.053548306 0.032408103 0.046353597 0.001130529
000150 42 90 65 3d 1f 00 01 3e a3 8b e0 3d c6 6e 64 be
       0.056045778 0.12597702 0.109641336 -0.22307882
000160 d5 69 f0 bd 42 d7 4c 3d a0 86 6a be 63 ef 7b be
       -0.11738936 0.050009973 -0.22902918 -0.24603038
000170 2a 08 fc bd a9 49 7b bd b8 d4 11 3e 6a 6f 55 3e
       -0.12306245 -0.061349545 0.14241302 0.20843282
000180 a6 99 85 3e af 0a ce 3d a0 3d 32 3d 30 d8 00 3e
       0.26093787 0.100606315 0.0435158 0.12582469
000190 e9 62 8d 3d e4 c5 04 bd 77 3e 73 3e 79 cc 38 3d
       0.06903631 -0.032415286 0.23754297 0.045116875
0001a0 f3 4f a1 be 6d 8f 15 3e f2 20 30 3e f6 0a ab be
       -0.3150631 0.14605494 0.17200068 -0.334068
0001b0 9e 9d 9a bc ff 6d 93 be d0 6b 16 be ba 0d d0 3d
       -0.018873986 -0.28794858 -0.14689565 0.10158868
0001c0 4a 2a 44 3e c7 2b 06 be de e2 a6 bb c6 a7 46 3e
       0.19156757 -0.13102637 -0.0050929626 0.19399938
0001d0 83 4b 0f 3e 69 a8 0b 3e 91 91 26 3d 25 71 7f ba
       0.13993649 0.13638462 0.040666167 -0.0009744338
0001e0 9a ca 24 3d f9 63 b6 3d 60 f2 a5 3c 08 b2 b5 bc
       0.04023228 0.08905787 0.020257175 -0.022179618
0001f0 d4 2a f0 3d 39 a7 d8 bd a7 59 da bd f8 4a bb 3c
       0.11726919 -0.1057877 -0.10661631 0.022862896
000200 eb e8 ca 3e 49 04 2d be c2 ad 2e be b5 d4 9c 3e
       0.39630827 -0.16896166 -0.17058471 0.30631033
000210 ed 42 a7 be 39 e7 5a be 57 40 2c 3d f4 0b 04 3e
       -0.32668248 -0.21377267 0.042053547 0.12895185
000220 64 45 4e bc 60 3d 64 be fb 98 e2 be 41 12 c4 be
       -0.012589786 -0.22289038 -0.4425734 -0.38295177
000230 0a 73 ef bd 7e bf bc be 78 25 aa 3d e0 45 b6 3e
       -0.11691864 -0.36864847 0.08307928 0.35600185
000240 2e 64 14 be a8 17 ee bd 2e 5a 78 3d 24 f8 95 bd
       -0.1449134 -0.11625606 0.060632877 -0.0732272
000250 57 a4 4e 3e 23 71 12 3e 02 79 6b bc 2d f9 ef 3d
       0.20179878 0.1430097 -0.014372112 0.117174484
000260 c0 ee 8b be 3f 0f 81 3e 11 88 2c 3e 8d 18 0b 3e
       -0.2733059 0.25206944 0.1684878 0.13583584
000270 d4 db 9a bd 23 19 ca 3d dc 1b a1 3d 84 01 80 be
       -0.0756146 0.09868076 0.07866642 -0.25001156
000280 62 49 c8 be f1 93 38 be 1b b8 d2 bd 45 31 07 3e
       -0.39118487 -0.18025185 -0.102890216 0.13202389
000290 65 d9 9f bd bf 71 ab ba 09 6f e5 3d 9e 61 07 be
       -0.078051366 -0.0013080164 0.11202819 -0.13220832
0002a0 8d 83 80 bd 5a 6a 27 bb 29 77 87 3d 01 1b 84 3d
       -0.06275091 -0.0025545568 0.06614525 0.06450463
0002b0 b5 3c 84 bd a4 8b da bd 63 1d f7 bd 7b 37 75 bc
       -0.064568914 -0.106711656 -0.12066152 -0.014966841
0002c0 c0 35 ce 3d ab 7f 13 be 2a f4 52 3d d1 49 cc 3d
       0.10068846 -0.1440417 0.051502384 0.09975017
0002d0 59 74 7f bb 7e 6b cf bd 96 bd c7 be 1b 3e 35 3e
       -0.003897926 -0.101279244 -0.3901183 0.17699473
0002e0 5a 16 91 3e dd a0 85 be a9 fe 32 bd 49 0b b4 3e
       0.28337365 -0.2609929 -0.043699894 0.3516486
0002f0 8e be fe bc 58 1c 12 be 10 91 b6 bc f7 16 31 be
       -0.031096723 -0.14268625 -0.022285968 -0.17293917
000300 2c 3a 5d bd be 14 62 be a8 22 24 bd 21 6b 3e 3e
       -0.054010555 -0.22078225 -0.040072113 0.18595554
000310 a7 76 43 3e f0 47 ee 3d 01 2b ac 3d 12 e8 7a 3e
       0.19088231 0.11634815 0.0840664 0.2450259
000320 86 9c 38 3e e8 05 5f 3e 8f 61 ee 3c bf 90 0b be
       0.18028459 0.21779597 0.029099254 -0.13629435
000330 c7 0d 63 be f0 e9 a8 be 86 52 22 be 29 af 1f 3d
       -0.22173224 -0.3299098 -0.15851793 0.038985405
000340 6d fd 76 3d 27 1a 10 bd 72 a4 0f 3d ed f2 0b be
       0.06030028 -0.03518119 0.035068937 -0.13666888
000350 af ed 88 3c 9f 0e 57 be 39 e5 05 3d b5 2a f8 bc
       0.016714899 -0.21001671 0.032689307 -0.030293802
000360 a3 c3 36 3c 4c a0 2e 3d e9 30 5a 3d 38 ad 22 bc
       0.011155042 0.04263334 0.0532693 -0.009928994
000370 c2 ae 16 be ad db a1 3d 80 37 29 be c7 99 8f bd
       -0.14715102 0.07903228 -0.16525078 -0.070117526
000380 d6 0c b6 3d 1b 4b 09 3d a8 d9 2f 3e 61 16 c3 bb
       0.08889167 0.03351889 0.17172873 -0.0059535955
000390 2e cf 32 bc 8b 0e 10 3e 26 08 25 3e cd 1a bc be
       -0.010913653 0.14068048 0.1611639 -0.36739197
0003a0 c8 a3 37 be df 87 f9 3c 8a 3d c5 be 05 fd b7 be
       -0.17933571 0.030460296 -0.38523513 -0.35935226
0003b0 03 0b 88 be 1b 65 ac 3c 85 ea 16 3e 7b a9 f5 bd
       -0.265709 0.021044305 0.147379 -0.119952165
0003c0 9c 89 3e 3e 45 31 6b 3d 92 a6 6c 3e 96 a8 34 be
       0.18607181 0.057420034 0.23110417 -0.17642435
0003d0 23 34 81 be 6d 21 84 3d 06 7e a1 be 15 22 07 3d
       -0.2523509 0.06451688 -0.3154146 0.032991488
0003e0 40 2f 2e 3e 4e 86 a8 be 80 6e 14 3e 43 69 6f 3e
       0.17010212 -0.32914966 0.14495277 0.23379998
0003f0 22 d6 30 3d b2 b2 ac bd 1c b6 8b be f5 be 80 bd
       0.043172963 -0.08432521 -0.27287376 -0.06286422

sequential/conv2d_1/Conv2D f4 [64, 3, 3, 32]
000000 49 99 d8 3d 4a 00 3f 3d db cc 64 bd 5e 04 07 3e
       0.10576112 0.046631135 -0.055859428 0.1318526
000010 33 4b 19 bc 7f 98 a2 3d 87 09 96 bd 4e 1b bb 3d
       -0.009356308 0.079392426 -0.07326036 0.09136067
000020 ad 2a b4 bc de fc 84 bd 68 be 1b 3e 2d 62 43 3d
       -0.021993006 -0.06493543 0.15209353 0.04770105
000030 28 c7 ab 3d 85 48 b9 3b 5f b2 5c bb 31 da 2e bd
       0.083875954 0.005654397 -0.0033675653 -0.042688552
000040 1b 74 ac 3d dd a2 00 be 21 2a b3 bd 75 49 87 3d
       0.08420583 -0.12562127 -0.0874827 0.06605808
000050 d8 d9 5d 3e 0f 33 f4 3d ef be 9e bd d7 d9 76 bd
       0.21665132 0.11923801 -0.077512614 -0.060266342
000060 c9 c1 df 39 3b 8e 89 bd 03 85 89 bc a6 8d 4d 3e
       0.00042678256 -0.067165814 -0.016787058 0.20073566
000070 29 30 17 3e e6 59 f5 3d a0 b0 77 3d 45 bb cd bd
       0.14764465 0.119800374 0.060471177 -0.100454845
000080 7f 75 6b 3c 88 d7 b8 bc 69 1f 98 bd 9f d2 4a bd
       0.014371275 -0.02256371 -0.07427866 -0.04951727
000090 f0 81 cf 3c a6 56 a6 bd 49 db 7b 3b a4 ac 08 3e
       0.025330514 -0.08121996 0.0038430265 0.13347107
0000a0 e9 42 de bd 14 1a 7e 3d 00 a5 e4 bb 9c b5 b5 bc
       -0.10852606 0.06203659 -0.0069776773 -0.022181325
0000b0 78 7e 28 3e a5 22 69 bd 05 d1 03 bd 5c 11 01 be
       0.16454494 -0.056917805 -0.03218176 -0.12604278
0000c0 e8 fe 54 be d5 e5 a6 3d c1 ab 97 bc 7f 77 a1 bd
       -0.20800364 0.08149306 -0.018514516 -0.0788412
0000d0 3e 16 1a 3e e2 06 9a 3d 2e d1 c6 bd cc 6d 18 3d
       0.15047547 0.07520844 -0.097078666 0.037214085
0000e0 76 54 c9 bc 0b 6c 5c 3e 95 74 24 3d 26 c0 f2 bd
       -0.024576407 0.2152559 0.040150244 -0.11853056
0000f0 0a 80 0e bd 6c 0d 07 3d a6 bc 31 3d 01 16 b6 3a
       -0.034790076 0.032971784 0.0433928 0.0013892056
000100 b8 42 9e bd 2f 05 69 3b e7 d1 8b be 86 83 0a 3e
       -0.07727569 0.0035556068 -0.2730858 0.13526735
000110 db 98 ca bd c8 77 f2 3d 4e b0 c1 bd d0 af ac bc
       -0.09892436 0.11839253 -0.094574556 -0.021079928
000120 ae bb a0 3d 65 8d 4a 3d b6 10 a1 bc 95 eb ea 3d
       0.07848297 0.04945125 -0.019661289 0.11470715
000130 d0 57 80 3c 8c 1f 14 bd 0f 48 e8 3d 43 8d 4f be
       0.015666872 -0.036162898 0.11341869 -0.20268731
000140 67 d3 7d 3d 21 94 62 be ce 49 45 3c 4a ea 07 bd
       0.061969187 -0.22126819 0.012041522 -0.03318242
000150 1d cc 56 3e 91 b3 8f bc b0 0e 67 be 2b e0 8b bd
       0.209763 -0.017541679 -0.22564197 -0.06829866
000160 ed 83 3e bc 69 f4 9c 3c 5f 78 1d be cd c1 a7 3d
       -0.011628133 0.019159513 -0.15377949 0.081912614
000170 41 3e 26 3d fb 1e a8 3d d1 3d 81 3b 83 a5 4e be
       0.040586714 0.08209034 0.0039441367 -0.20180325
000180 a5 85 c4 bc 74 33 2a bd 4b 55 04 be b1 98 ed 3d
       -0.023989508 -0.041552976 -0.12923162 0.11601389
000190 88 0c af 3c 5e da c0 bb 40 3f 6b 3d fb a2 f7 bd
       0.02136828 -0.0058854064 0.057433367 -0.12091633
0001a0 da 53 ae bd b7 d1 2e bd 91 b6 e4 bd 2b bc 95 3d
       -0.08512087 -0.04268047 -0.11167634 0.07311281
0001b0 12 0a 03 be 95 fc 09 bd 26 53 76 bb 48 6a 4d be
       -0.1279681 -0.033688147 -0.0037586181 -0.20060074
0001c0 ed 32 10 bc 0e 1e 30 be fd be 9c 3d 9c f2 41 be
       -0.008801204 -0.17198965 0.076536156 -0.18940204
0001d0 6e 31 a9 3d d0 ed 4b be 68 3e bb bd 0f 35 50 3c
       0.08261381 -0.19914937 -0.091427624 0.012707963
0001e0 b2 15 7e 3d 78 45 8a bd 12 e4 8b be 4c b7 51 be
       0.06203241 -0.06751531 -0.2732244 -0.20480078
0001f0 59 91 85 bd 1f fe f2 3d f6 90 ce bc 73 12 1b ba
       -0.065218635 0.11864876 -0.025215607 -0.000591553
000200 88 9c 9b 3d b8 34 51 3d c2 ec e3 bd fe 54 13 bd
       0.07598215 0.051075667 -0.11129142 -0.035969727
000210 1c b8 b6 bd 26 06 38 3b 2e 1c b6 bd 55 44 3f 3d
       -0.08921835 0.0028079837 -0.088920936 0.046696026
000220 3b fd 49 bc 2d ac d0 bd 7c 41 c8 bc e3 2b 09 be
       -0.012328441 -0.1018909 -0.024445288 -0.13395648
000230 ac dd 9e bd 57 c4 f7 bd 33 2a 72 3d 31 21 a0 3b
       -0.07757124 -0.12097996 0.059122276 0.004886769
000240 f9 37 b3 3c 07 59 bc 3c 66 92 fe bd 69 c8 b7 3d
       0.021877276 0.02299167 -0.12430267 0.08973772
000250 21 74 14 be a5 0f 94 bc ae 35 d8 bc 40 ba a0 3d
       -0.14497425 -0.018073866 -0.026392784 0.07848024
000260 80 06 64 3d 5e 09 80 bb 09 6d 20 be 5a a3 8a bd
       0.05567026 -0.0039073667 -0.15666594 -0.06769438
000270 bd a5 f0 bb 7a f7 a0 bd e6 47 2d 3c 14 8a 82 bd
       -0.0073439763 -0.078597024 0.010576224 -0.063739926
000280 16 15 9e bd 22 82 17 3d c0 fd e2 bd 5b 4e c0 3d
       -0.077188656 0.03698934 -0.11083555 0.09389945
000290 81 5d 6c bd 21 70 9b 3d 80 ca cd 3c 53 45 43 bd
       -0.05770636 0.07589746 0.025120974 -0.047673535
0002a0 7d 38 e9 bb e8 75 dc bd d3 50 38 bd c2 80 2a bc
       -0.0071173296 -0.10764676 -0.044998955 -0.010406675
0002b0 52 e0 c3 bd 29 7e 79 3d 31 be ec 3c 91 34 33 be
       -0.0956427 0.06091133 0.028899284 -0.17500521
0002c0 99 24 9e 3d 64 b8 02 be b9 e5 c4 bd 4b d9 84 bb
       0.07721824 -0.12765652 -0.096141286 -0.0040542237
0002d0 67 95 c1 bc 9e f8 47 be cc bf 0d bc ca 22 ae bd
       -0.02363081 -0.19528434 -0.008651685 -0.08502729
0002e0 0d 17 c8 bd 71 ca 27 be 90 55 30 be 1d 4e c1 3d
       -0.097700216 -0.16385819 -0.1722014 0.09438727
0002f0 6a 27 3e be d2 7c 39 bd 58 4b 2a bc c5 da b0 3c
       -0.18569723 -0.045285054 -0.01039394 0.021588692
000300 3a 35 45 bd 65 b4 71 bd 26 3d b7 3a c9 b2 5e 3b
       -0.048146464 -0.05900993 0.0013980016 0.0033981076
000310 58 18 80 bb cb e6 19 bc c1 c4 4f 3d ad f9 3c 3e
       -0.003909152 -0.009393404 0.05072475 0.18454619
000320 b1 af d1 3d 11 99 b2 3d 2f ca eb 3d fd 69 c1 bc
       0.102385886 0.08720601 0.11513173 -0.02361011
000330 6c e5 43 3e 4b 00 5a bd 74 60 44 be 62 6e 4b bc
       0.19130486 -0.053222936 -0.19177419 -0.012416454
000340 11 0c 53 3d dc 33 bb 3d 59 28 0f bd 26 30 30 bd
       0.05152518 0.09140751 -0.034950588 -0.043014668
000350 4f f3 91 3d 71 8b 56 3e 0d 58 9e 3b ff f0 e2 bc
       0.071264856 0.2095163 0.004832274 -0.027702807
000360 ac dd 80 3d e1 79 1f 3d 49 1c c0 bd 3d ad 3a be
       0.062922806 0.038934592 -0.09380395 -0.18230148
000370 88 30 9e 3e 83 84 11 3e f7 0a 6a 3d fa aa 5c bd
       0.308964 0.14210705 0.057139363 -0.053873993
000380 78 e4 d4 3b 65 6c f5 3b 0a 36 2a be 0f 22 01 3e
       0.006496962 0.0074897283 -0.16622177 0.12610649
000390 96 36 9b 3c 8e 48 9f 3c 51 75 82 3e 56 c9 62 3d
       0.018946927 0.019443776 0.2548013 0.05536779
0003a0 41 9b 04 3e 3d 78 ac bd 76 d2 6a 3e a0 1b 16 bd
       0.1294985 -0.08421371 0.22931847 -0.03664744
0003b0 50 f1 53 3c 6d 1b 6e 3c 01 f2 9e be bf 70 ea bd
       0.012935951 0.014532906 -0.3104401 -0.11447286
0003c0 05 53 28 3e 71 d2 b7 bd ae fb 75 3d ea cd 3f 3c
       0.1643792 -0.089756854 0.060054474 0.011706809
0003d0 40 25 23 be 68 68 1e 3d c3 a6 01 3d 31 d5 99 3d
       -0.15932178 0.03867379 0.031653177 0.07511366
0003e0 9d e6 95 3c ed e6 e4 bd 31 d3 f2 bb ba e6 1a bd
       0.018298442 -0.11176858 -0.00741043 -0.037817694
0003f0 95 65 96 3d 03 c3 0b bd 79 4c 02 3c 2a 61 42 3c
       0.07343594 -0.034121525 0.007952803 0.011863986

sequential/conv2d_2/Conv2D f4 [64, 3, 3, 64]
000000 f5 a8 8c 3d ab 9f bf bc 9a 7f a3 bd d4 d8 cd 3d
       0.068681635 -0.023391565 -0.079833224 0.10051122
000010 fa 21 5c bd 1c 2c f8 bd fb 58 e5 bd ce 0d 0c be
       -0.05374334 -0.12117788 -0.11198612 -0.13677141
000020 5f 26 7f bc ef 13 23 bd 5b 3b f3 3c 3d ca 78 3d
       -0.015573113 -0.039813932 0.029691389 0.060739744
000030 c9 d1 a8 3c d0 00 2e 3c c5 be e5 3c 06 2a 90 3c
       0.020607846 0.010620311 0.028045068 0.017598163
000040 50 b0 f2 3d f5 21 82 3d 16 5d 54 3e 4a ac 8a 3e
       0.11850035 0.06354133 0.20738634 0.2708457
000050 51 e2 8e bd 55 d1 20 bd dc bb 84 bd 39 29 8f be
       -0.0697676 -0.039262135 -0.06481144 -0.27961138
000060 07 0e c3 bd 18 43 48 bc e8 b4 0f be 43 e8 9a bb
       -0.0952416 -0.012223028 -0.14033854 -0.004727395
000070 db a7 17 be e3 60 d2 3d 5d 3a 53 bd 2b a4 2a 3d
       -0.14810126 0.10272386 -0.05156933 0.04166047
000080 9a 20 28 3d 8f da 40 be 7b f5 9a bd b5 78 5c bd
       0.041046716 -0.18833373 -0.07566353 -0.053826053
000090 05 f9 52 be ca 66 61 3e a2 f7 77 bd 4c 94 34 3d
       -0.20602806 0.22011867 -0.060538895 0.04408674
0000a0 dd 3a 31 3d d6 fb 0a 3e c3 0b 43 3a a3 a9 e9 3d
       0.043269027 0.1357263 0.00074404123 0.11409309
0000b0 95 54 49 3d 5a 4f 93 3d 16 49 72 be 15 00 16 bd
       0.04915293 0.071928695 -0.23660693 -0.036621172
0000c0 23 5f c7 3d d2 46 5a be df 09 fd 3c 41 26 14 3e
       0.09734943 -0.21316078 0.030888496 0.14467718
0000d0 56 5c 8e 3d 7d 97 83 bc 23 13 57 3c 3b 67 b6 bd
       0.069512054 -0.016063446 0.013127121 -0.089064084
0000e0 90 21 06 3e 4a 5f 92 3d 13 9e 10 be 02 27 1a 3d
       0.1309874 0.07147081 -0.141228 0.037634857
0000f0 87 28 ac 3e b6 3f 03 3e 7e bf da bd af 5e 99 3e
       0.3362467 0.12817273 -0.106810555 0.2995505
000100 da 2c 9e bd 7e 27 f8 bc 5b 3f c1 39 e4 0b 21 3d
       -0.077233985 -0.030292269 0.00036859032 0.03931798
000110 e0 05 91 3c ef 8f 35 bd 54 4c 98 bd 99 d1 4c be
       0.017702997 -0.04432672 -0.074364334 -0.2000183
000120 9a a0 04 3e c5 cf 16 bd 61 7a 95 3d 61 b2 29 bd
       0.1295189 -0.03681924 0.072987325 -0.04142988
000130 55 fb 84 bd 33 86 ff 3c 19 d1 29 3d af e5 0e bc
       -0.0649325 0.03119192 0.041459177 -0.008721753
000140 da 87 96 bd 9c 93 a0 bd 67 f2 de 3d ce b8 02 3e
       -0.073501304 -0.07840654 0.10886078 0.1276581
000150 39 31 f0 bc 71 5c 07 be f8 e5 31 3d 11 11 60 bd
       -0.029320346 -0.13218857 0.043432206 -0.054703776
000160 fd 94 31 be 83 c7 ec bd f4 89 91 bd ed dd 39 bd
       -0.17341991 -0.11561491 -0.071063906 -0.04537766
000170 08 e0 92 bd 73 70 29 3d 5e 1c 3b 3d 6a cd 32 3d
       -0.07171637 0.041367006 0.04568135 0.04365293
000180 15 0c 12 3d d3 4f 6f bd 2c db 14 be c5 66 59 3d
       0.035656054 -0.058425736 -0.14536732 0.053076524
000190 e8 5c 9b bd 6a b4 08 3e 85 c9 a7 bc 86 e6 f5 bd
       -0.0758608 0.13350073 -0.020481834 -0.120068595
0001a0 5e 89 78 bd 3c 76 14 bd 36 0c 2f bd 63 02 e7 3c
       -0.06067788 -0.03624557 -0.042736255 0.02819938
0001b0 c9 cc 50 bd 35 38 74 bc c7 e6 64 bd 71 6c 32 be
       -0.05097655 -0.014905979 -0.05588415 -0.1742418
0001c0 9e 0a 20 3e e1 6a 45 be 46 03 06 3c e0 1f ea bc
       0.1562905 -0.19279052 0.008179491 -0.028579652
0001d0 8a a8 20 3c 63 86 f3 bd 34 43 bc 3c ff 0a c4 3b
       0.009805808 -0.118908666 0.022981264 0.005982756
0001e0 c2 84 38 bc ca 4b f8 ba 14 c5 03 be 75 1f b3 bc
       -0.011262121 -0.0018943485 -0.12868148 -0.021865586
0001f0 84 08 e4 3d fa 2b 8f bd 6f e4 01 bd 08 cc d9 3d
       0.11134437 -0.0699081 -0.031711992 0.10634619
000200 91 f3 2c bd a5 20 87 3b 88 1e 50 3d 56 f9 a1 3b
       -0.04222447 0.0041237646 0.050810367 0.0049430532
000210 6a a3 04 3c d8 d7 25 3e cb 38 0d 3e 6c 32 70 bb
       0.008095602 0.16195619 0.13791196 -0.0036651148
000220 ac a3 b0 3c 82 b4 51 bd 23 ec 94 3d 01 63 c1 3b
       0.02156242 -0.051197536 0.07271602 0.0059016948
000230 6c 98 47 3d b9 8f 88 3d af 67 0e 3d 37 1c 67 3d
       0.048729345 0.06668038 0.03476685 0.056423392
000240 c7 23 8e 3d 34 44 2c 3d 2b 84 73 3d 0c e4 a3 3d
       0.06940418 0.04205723 0.059452217 0.08002481
000250 96 86 50 3e db 9a 0a be 95 24 2a 3e a8 38 0c 3e
       0.2036384 -0.13535635 0.16615517 0.13693488
000260 6a fc 5a bd 79 f9 74 3a da a6 d5 3c 10 61 8b 3c
       -0.053463377 0.00093450357 0.026080538 0.017014056
000270 f7 65 3c bd b9 ae 9a 3d 54 98 41 3d 91 86 10 3e
       -0.04599568 0.07552857 0.047264412 0.14113833
000280 d7 36 3c bc 50 9e 93 bd 56 9e 82 be e8 ea 8e bc
       -0.011487684 -0.0720793 -0.25511426 -0.017445996
000290 e5 f3 11 3d 56 e2 17 bd 3a 79 5e bd 83 71 21 bd
       0.035632987 -0.037081085 -0.05431483 -0.039414894
0002a0 c5 84 e0 3d 04 61 b2 3d 84 75 0c 3e 98 b3 5a 3e
       0.10962824 0.087099105 0.13716704 0.21357572
0002b0 54 d3 21 be ae 10 8b ba 38 30 83 bb 0f 2e b4 3c
       -0.15803272 -0.0010609829 -0.004003551 0.021994619
0002c0 70 86 e6 3d 9b 9c 15 be 88 c8 0a 3e bf 9d 3a 3e
       0.11256111 -0.14610521 0.13553059 0.18224238
0002d0 46 44 b9 3c 04 e9 9a 3b 2a 78 35 3e 39 6e 66 bd
       0.022615563 0.0047274847 0.1772162 -0.05625746
0002e0 32 2c 82 bd 09 f5 86 3d f8 27 1e bd bb 2c 38 3d
       -0.06356086 0.065897055 -0.038612336 0.044964533
0002f0 11 86 af bd 20 1d 5b bd f7 c6 6c bd fe b8 9d bd
       -0.08570493 -0.053494573 -0.057806935 -0.077013
000300 2b c7 c4 3c 40 85 5e 3d f6 3a 2d be 66 b9 27 3e
       0.024020752 0.054326296 -0.16917023 0.16379318
000310 86 a9 9e bc be 5d 8c bd db b8 d4 bd ea 47 0e be
       -0.019367944 -0.068538174 -0.10386821 -0.1389462
000320 fa 31 42 3e f1 af 39 3c f6 05 90 bd 15 dc 30 bc
       0.18964377 0.011333452 -0.07032387 -0.010794659
000330 c7 86 16 bc 7c a9 86 bd 98 e7 15 3c e1 0f 95 bd
       -0.009187407 -0.06575295 0.0091494545 -0.07278419
000340 f9 fb 86 bd 84 20 69 3d d1 5c 6e 3d 5c 6e c0 3e
       -0.06591029 0.056915775 0.058193985 0.37584198
000350 0d 98 43 be 05 fd f2 bd 44 ee bc 3d e7 02 ec bc
       -0.19100972 -0.11864666 0.09225133 -0.028809978
000360 ef 82 a8 bc cb 9a 26 bd 5f 19 f8 bd 71 f1 c0 bc
       -0.020570247 -0.040674966 -0.12114214 -0.023552628
000370 2c cb e1 bd 8c f3 cc 3d 75 10 bc bd 91 24 17 3d
       -0.1102508 0.100073904 -0.091828264 0.036900107
000380 77 b0 38 3e 3f 50 1b be 56 d7 1c bd e8 8d b7 3d
       0.18036066 -0.1516733 -0.038291298 0.08962613
000390 25 89 3f bd 7c b5 d3 3d 1a 7e b2 3d 58 5b ae bb
       -0.04676165 0.1033735 0.08715458 -0.0053209476
0003a0 46 82 94 3d b2 01 07 3e 7c 6a 07 3d fb e6 c1 bd
       0.0725141 0.1318424 0.033060536 -0.09467884
0003b0 d0 25 ae 3d 8c a5 b4 bd 7a 7b c3 3d d3 22 90 bd
       0.08503306 -0.08820638 0.09545036 -0.07037892
0003c0 5a 75 48 3e 9b e8 8c be 1f d2 6a bc f4 d7 23 3d
       0.19576016 -0.27521214 -0.014332323 0.04000087
0003d0 28 35 47 3e 96 9d 88 3d 98 5f b0 bd a8 9c 8f 3c
       0.19453871 0.06670682 -0.08611983 0.017530754
0003e0 37 e7 26 bd ac 13 58 3d 1f 8b 75 be d3 79 e7 bd
       -0.040747847 0.052753136 -0.23978852 -0.11302533
0003f0 7f e6 81 3e 31 41 35 3e 22 0c 72 3d 60 0d 11 3e
       0.25371167 0.1770065 0.059093602 0.14165258

sequential/dense/BiasAdd/ReadVariableOp f4 [64]
000000 7d 1b 52 3c b2 f9 71 bd 3e e2 10 bc 7c 4e 15 3d
       0.0128239365 -0.05907602 -0.008843003 0.0364518
000010 4f ce 78 3d 5b 4f a5 bc d2 48 7d bc ea 6e 44 bd
       0.060743626 -0.020179441 -0.015459256 -0.04795734
000020 e8 c7 af bb 27 9c 3c bd ad 69 2c 3d ba 64 a3 bc
       -0.005364407 -0.046047356 0.042092968 -0.019945491
000030 c6 0d c4 bc cb f8 4f bd c1 3a e0 bc e5 c9 41 3d
       -0.023932349 -0.050774377 -0.027371766 0.047311682
000040 a3 71 b1 bb 53 bd ca 3b 3b fb f5 bc 98 55 a2 3c
       -0.005415158 0.00618712 -0.030027023 0.019816205
000050 88 fb 3a bd 89 e6 86 3c 40 36 af bd 08 ae 9b bc
       -0.045650035 0.01646735 -0.08555269 -0.019003883
000060 ac f5 ed 3c f8 a0 89 3d 78 51 71 bd 49 d9 5e bd
       0.02904781 0.067201555 -0.058915585 -0.054406438
000070 b9 03 e3 3c e0 0c 93 b9 18 1d c7 3a 3a f0 8a bc
       0.027711736 -0.00028047618 0.0015191166 -0.016960252
000080 47 45 64 bd aa f1 93 38 9e 9c 09 3c 4a 82 06 3c
       -0.05573013 7.05452e-05 0.008399157 0.008209774
000090 ee 7c 63 bd 9d 2e b8 bc a0 75 b9 3c c5 1a cc 3d
       -0.055539064 -0.022483164 0.022639096 0.099660434
0000a0 8e e8 3f bd e6 08 00 bc 56 9c 66 3d 93 1e a9 3d
       -0.04685264 -0.007814622 0.056301437 0.08257785
0000b0 78 a2 83 3c 39 dc b3 bc 3a 42 71 3c 99 a5 22 3d
       0.016068682 -0.021955596 0.014725262 0.039708707
0000c0 e8 34 38 3d f8 78 28 bd 7e 22 4f bd 4b 4e 9d bc
       0.04497233 -0.04113099 -0.050570004 -0.019202372
0000d0 0f 9d e1 3c fa 30 42 bd 9b 6f 13 bd 1d 82 23 3d
       0.027540712 -0.04740999 -0.035995107 0.039919008
0000e0 d5 48 09 bc 67 9e b1 bc 55 de 46 3d 93 76 61 3c
       -0.008379181 -0.021681977 0.048551876 0.01376118
0000f0 17 cd 41 bd cd d3 be bc ed 3f 07 bc 75 44 54 3d
       -0.04731473 -0.023294354 -0.008254987 0.0518231

sequential/dense_1/BiasAdd/ReadVariableOp f4 [10]
000000 61 69 ad bc 04 5b b4 3d 17 1c 9f bd 1d 36 2c 3d
       -0.021168413 0.08806422 -0.077690296 0.042043794
000010 7a 14 a6 3c 9b 81 95 bd 13 9e 6d bd 1a bc 9e 3c
       0.020273436 -0.07300111 -0.05801208 0.019376803
000020 69 ba c8 3d 4e df 4b bd
       0.0980118 -0.049773507

sequential/dense/MatMul f4 [64, 576]
000000 84 cd 88 3d 99 dd 12 be 23 5a 01 be 8a 2a e2 3d
       0.06679824 -0.14342345 -0.1263204 0.1104327
000010 07 aa 32 bd ec 83 86 3e 34 22 a3 bd 80 92 49 3e
       -0.043619182 0.26272523 -0.07965508 0.19684792
000020 fe 2a 08 3e 0e b8 28 bd 70 fd 9d bb 34 36 6b bd
       0.1329765 -0.041191153 -0.004821472 -0.05742474
000030 9f fc c1 3d 19 0c e4 bc 8c c4 1f bd a4 4e 19 3d
       0.09472012 -0.0278378 -0.0390058 0.037428513
000040 72 91 84 3d 23 19 03 be 72 62 c0 3b f5 56 77 3d
       0.06473054 -0.12802558 0.0058711106 0.060385663
000050 71 5c bb bd d4 97 7d bc 71 e6 d3 bc 77 7f 0e 3e
       -0.09148491 -0.015478093 -0.025866719 0.13915811
000060 cf a8 8a bc 8d 32 23 3e 1e 49 eb 3d 77 1c 0a bd
       -0.016926197 0.15937252 0.11488555 -0.033718552
000070 09 ed f5 bd 55 59 73 3d e2 7d 98 bc 2b 71 1f bc
       -0.120081015 0.059411366 -0.018614713 -0.009731571
000080 65 8c 1e 3d c9 ca d6 3c da 48 85 bd 71 cc 19 3e
       0.03870811 0.026219742 -0.06508036 0.15019394
000090 91 fe ae ba a5 c6 26 3e 62 51 67 3d 3e 0a 17 bd
       -0.0013351013 0.16286714 0.056474097 -0.036875002
0000a0 02 78 ce 3d ef 0b df 3d 1f e0 05 3d 2f 20 dc bd
       0.100814834 0.10890948 0.03268444 -0.10748326
0000b0 e4 ca a8 3d e3 0e be 3d f5 b8 1d 3e 81 9f 9c bd
       0.08241823 0.09280183 0.15402587 -0.076476105
0000c0 d9 9d 16 3e 7e 27 97 3e c0 d2 01 be 4e d1 fc bd
       0.14708652 0.29522318 -0.12678051 -0.12344609
0000d0 26 e7 d0 3d 4f 47 e7 3c 1a 46 b2 3c 24 51 3c bd
       0.10200338 0.028232245 0.021761943 -0.04597582
0000e0 22 cb 57 3d 1f bc d4 bd f9 50 4a 3d 10 24 26 3c
       0.052683957 -0.10387444 0.049393628 0.010140434
0000f0 04 e4 c7 3d a7 31 e7 3d a4 4d a5 3d bd 67 57 3d
       0.097602874 0.11288767 0.080714494 0.052589167
000100 59 ca 04 3e 19 7d b4 bc 3b bb 3f bc 30 fc 41 3d
       0.12967815 -0.022032307 -0.011702354 0.047359645
000110 20 a7 b7 3d 16 08 9e 3c d5 58 d1 3a d4 96 6d 3a
       0.089674234 0.019290965 0.0015971909 0.00090633077
000120 74 ba 98 3c 92 75 41 3d cf f7 bd 3d 18 67 05 3c
       0.018643595 0.047231264 0.09275781 0.008142255
000130 2c 71 9e 3d a2 77 eb 3d fa 4a ed 3c 32 11 d4 bb
       0.077364296 0.114974275 0.028966416 -0.0064717764
000140 1e 03 84 3d 42 2a 31 3d c8 40 97 bc 8d 96 04 be
       0.06445907 0.04325319 -0.018463507 -0.12948056
000150 e8 ca 10 3d cb 56 c8 3c e7 92 e7 3d b1 93 d5 bd
       0.035349756 0.024455449 0.11307316 -0.104285605
000160 12 d5 e8 bc d3 a7 81 3d f0 dc 12 bd e7 37 7b bd
       -0.028421912 0.06330838 -0.035855234 -0.06133261
000170 38 99 96 bc ec a7 cc 3d fe f1 dc bc 1f fd 89 3d
       -0.018383607 0.09992966 -0.02697086 0.06737732
000180 01 5a 00 be 6f 4a 67 3d 88 cf 8d 3d 15 ce d6 3c
       -0.12534334 0.05646747 0.06924349 0.026221314
000190 a5 d0 61 3d cd 10 c4 bd cb 92 d8 3c a3 13 2c bc
       0.05513062 -0.09573517 0.026437184 -0.010502729
0001a0 57 07 36 bd ba db 81 3d fd 08 a9 3d 87 bb 4c 3d
       -0.044440594 0.06340738 0.082536675 0.049983528
0001b0 da a6 94 3c 77 de 1c 3e 9c 20 06 3c 33 f5 af bd
       0.018145967 0.15319239 0.008186486 -0.0859169
0001c0 b3 0d 6f bd 8b a5 03 bc 37 ba 5f bd 7c 17 91 bd
       -0.058362674 -0.008035074 -0.054620948 -0.070845574
0001d0 2e 21 11 bd 68 56 74 3d 1d 7f 51 bd fe dc 39 bd
       -0.035432033 0.059652716 -0.051146615 -0.04537677
0001e0 63 bf a5 bc eb 48 0f be 6a 12 8e 3b 1f ab 5e bd
       -0.020232862 -0.1399266 0.004335691 -0.054362413
0001f0 0d dd e7 bc a6 85 e3 bc d7 fb 99 3d a7 cc 5f 3d
       -0.028303647 -0.02777369 0.07518738 0.05463853
000200 40 ea 62 3e 8d 3e c0 3d 85 56 06 3d 3b cf b1 bd
       0.22159672 0.093869306 0.032797355 -0.08682104
000210 17 a6 52 bd e7 a1 bc bd eb 6e fe bc f4 a4 b3 3d
       -0.051427927 -0.09210568 -0.03105875 0.08771697
000220 52 f5 d0 3d e6 d0 10 3b a3 6c b6 bb 9e 34 01 bd
       0.10203041 0.002209717 -0.0055671497 -0.03154432
000230 8e 5a d5 3d 2f f0 c4 bd 33 1b 98 3d a4 42 33 bd
       0.104176626 -0.09616124 0.07427063 -0.043764725
000240 b0 74 45 be 1b bb 93 3d c4 bc 63 bd cd 50 11 bd
       -0.19282794 0.07213422 -0.055599943 -0.03547745
000250 92 b8 d6 bd ef 98 c9 bb 47 ca 4b 3d c0 24 e6 bc
       -0.10484423 -0.0061522643 0.049753454 -0.028093696
000260 67 3d e2 3c 53 73 6a 3d 3f 23 94 bc d8 19 fd 3d
       0.02761717 0.057238888 -0.018083213 0.12358445
000270 97 95 1c 3d c6 4b 93 3d 10 6b 81 3c bd 7e da 3d
       0.038228597 0.07192187 0.015798122 0.10668705
000280 83 4c 34 3d 65 b2 f3 3d dd 86 9d 3d 29 e8 8b bb
       0.04401828 0.118992604 0.07691739 -0.004269619
000290 3a 83 9e bd 6c a1 7b 3c 1c ae f7 bd 28 f6 5c bd
       -0.07739873 0.01535831 -0.120937556 -0.05394569
0002a0 30 c3 18 3e f7 6f 4c 3e 58 23 59 bc ad 8e b8 bc
       0.14918208 0.19964586 -0.0132530555 -0.02252897
0002b0 2f 1f 8c bd e6 f9 06 bd 67 92 6b bd 55 f6 dd 3d
       -0.06841885 -0.032953165 -0.057512667 0.10838
0002c0 f5 ae b3 3c 31 8d 6e 3d 2b 1b d9 3d 88 54 be bc
       0.021934012 0.05824012 0.10600885 -0.023233667
0002d0 06 68 17 bd 77 c7 af 3b ba 3f 74 3d 1a 42 28 3e
       -0.03696444 0.0053643542 0.059631087 0.16431466
0002e0 0e 24 8d 3b 78 4c 67 3d 39 8b 46 bd b8 d6 b3 bc
       0.0043072766 0.05646941 -0.048472617 -0.021952972
0002f0 ed 34 5c 3d 31 61 a9 3b 96 fc c9 bd a2 93 bf bd
       0.05376141 0.005169057 -0.0986263 -0.093543306
000300 07 25 47 be 53 da bc 3c 97 c7 aa bc 61 a8 a2 3d
       -0.19447719 0.023053324 -0.020847125 0.07942272
000310 a3 d2 24 bd 83 d6 11 3e ac 1a 01 3e bd e3 61 3d
       -0.04023994 0.14241986 0.12607831 0.05514883
000320 de 2f 21 3e 10 60 ab 3d e5 96 9b 3c 37 d8 b9 3d
       0.15740916 0.08367932 0.01899285 0.09074443
000330 70 a8 60 bd 6b 83 b5 bd 5d 41 1f 3c 68 5c 00 bd
       -0.054848135 -0.088629566 0.009720174 -0.031338125
000340 7d e7 e0 3d ff 7a c3 bc 25 cf 1b 3e c0 ce 13 3e
       0.10981653 -0.02386236 0.15215738 0.14434338
000350 27 f8 55 3d 9f 4f ca bd c2 89 c8 3d 27 d4 2a bd
       0.05223861 -0.09878468 0.097919 -0.04170623
000360 e7 29 96 3c bd 2f 64 bd 67 3c 2a 3d b6 b3 38 3b
       0.018330527 -0.05570959 0.04156151 0.0028183288
000370 a6 02 61 3d 3d d8 83 3d 62 52 54 bd dd 59 a9 bd
       0.054934166 0.064377286 -0.05183638 -0.08269093
000380 23 22 5a 3d 71 cb a8 3d 49 1f 18 bd cb fd 53 3d
       0.05325521 0.08241928 -0.03713921 0.051755708
000390 8f 03 56 bd ce ed 60 3d 11 c7 a0 3d 08 79 25 3e
       -0.052249487 0.05491429 0.07850469 0.16159451
0003a0 b8 68 0d 3d d4 31 56 3d ed 94 88 3d eb 9d ee ba
       0.034523696 0.052293614 0.0666903 -0.0018205022
0003b0 66 5d 3c bd 6a 7a 4c bd a5 71 de 3d 88 82 1c bc
       -0.04598751 -0.04992143 0.1086152 -0.009552605
0003c0 e7 7a 09 3e ca 94 4f 3d 60 bd f0 bd 34 67 0f 3e
       0.1342579 0.050679006 -0.117548704 0.14004213
0003d0 77 7d 02 3e 1e d1 b0 bc b7 89 95 3c 97 a2 c9 bd
       0.12743174 -0.02158409 0.018254144 -0.09845465
0003e0 58 00 d0 3c 96 9b f6 bc 20 ce 86 bd 40 57 17 3c
       0.025390789 -0.030103486 -0.06582284 0.009237111
0003f0 d6 45 40 3d 1f bf e4 3d 76 02 a1 3d c2 91 23 bd
       0.0469416 0.11169266 0.078617975 -0.039933927

sequential/dense_1/MatMul f4 [10, 64]
000000 66 83 5b 3e cc 57 6b be 7c 01 87 be 0b da b0 be
       0.21436843 -0.2298271 -0.2636832 -0.34541354
000010 64 47 5e be 8a f5 34 be 00 29 a3 3d 88 de dc 3c
       -0.21706921 -0.1767179 0.079668045 0.02696158
000020 8f 75 3f 3e 62 5d 64 be c6 75 8c 3d c9 b4 96 bb
       0.18697189 -0.22301248 0.06858401 -0.004599188
000030 f3 ab 89 3d 01 00 d1 3d 1d e1 a8 bc b8 fa 56 3e
       0.0672225 0.10205079 -0.020615155 0.20994079
000040 11 b6 3c be 9c ce 97 bd ca 87 7d 3e 98 00 51 3e
       -0.18428828 -0.074124545 0.2475883 0.20410383
000050 44 e6 5e 3e b6 d1 6b be 3c 17 85 3d 28 54 29 be
       0.21767527 -0.23029217 0.06498572 -0.1653601
000060 84 84 fc 3d 95 62 39 3e 5e ac 13 3e 78 c0 1e be
       0.12329963 0.18104012 0.14421222 -0.15503109
000070 4e a6 dc be c9 58 24 be 3c 1f aa be 65 2b 9c 3d
       -0.4309563 -0.16049494 -0.33226955 0.07625464
000080 3b 30 72 be ee b1 30 be 40 43 97 3d 12 b1 08 3e
       -0.23651211 -0.17255375 0.07385874 0.13348797
000090 7c 6b 48 bc eb 61 f1 ba 48 ee 25 bc c7 d4 01 3e
       -0.0122326575 -0.0018416023 -0.010127611 0.12678824
0000a0 40 de e0 3c 14 15 af 3e f8 b4 14 3e bd 4b 8c be
       0.027449727 0.3419577 0.14522159 -0.27401534
0000b0 be 72 9d be 46 2a 68 be ab c6 61 be 95 5d c2 be
       -0.30751604 -0.22672376 -0.22048442 -0.37962022
0000c0 d4 5c 89 3e 02 2c 00 be 2c 2c 97 be 90 3a 92 3d
       0.26828635 -0.12516788 -0.29525888 0.07140076
0000d0 46 4b 89 be 2b 12 1e 3e 25 10 63 3e 93 bb 53 3e
       -0.26815242 0.15436618 0.22174127 0.20677023
0000e0 0f 93 26 be b9 88 c7 be 40 d5 62 be 60 18 55 3e
       -0.16267036 -0.389715 -0.22151661 0.2081008
0000f0 aa fd dc bc d4 0d 1c be ca ab fd bd 21 a2 b9 be
       -0.026976425 -0.1523965 -0.12386282 -0.36256507
000100 2a 93 f6 bd 2d 3b 82 3e b8 19 f9 3d fd 57 d8 bd
       -0.12039788 0.25435773 0.121631086 -0.105636574
000110 e8 e7 75 be da 66 d5 3d b7 7c 9e be ce ca 36 3d
       -0.24014246 0.10420008 -0.30954525 0.044627003
000120 a3 c0 2e 3b 50 db 68 37 8f a6 4d be 93 a9 c6 3d
       0.0026665113 1.387934e-05 -0.20083068 0.097003125
000130 0b 1c 8d be 2e ea 39 be 38 23 8e be b4 1e 27 3c
       -0.27560458 -0.18155739 -0.27761245 0.010200191
000140 9b d4 1f be e5 e7 fa 3d a5 9d ee 3d 0c 09 95 be
       -0.15608446 0.122512616 0.11651162 -0.29108465
000150 e0 cc 8f be d5 c5 8c 3e 54 4c fd 3d b1 65 3d 3e
       -0.28085995 0.27494684 0.12368074 0.18495823
000160 6d 26 1b be 2e d6 a6 3e a9 1e 32 bd 01 9f 21 3e
       -0.15151377 0.3258528 -0.04348627 0.15783311
000170 91 f6 4d be fd 3f b8 bd b6 41 ef 3c 33 ad 71 be
       -0.20113589 -0.0899658 0.029206138 -0.23601227
000180 36 54 f1 3b a4 79 a5 be 17 da 68 3d c6 2b 65 3e
       0.007364775 -0.32319367 0.05684861 0.2237998
000190 d5 d6 ac be ee d6 9b be f3 74 8d be 21 32 d9 3d
       -0.33757654 -0.30437416 -0.27628288 0.106052645
0001a0 8d f5 12 3c 07 d7 b0 3d 5e 08 fb bd a8 b2 85 3e
       0.008969677 0.08634763 -0.12257455 0.26112866
0001b0 1f ef 30 be d3 5b 5c bd 01 48 13 be a8 69 96 3e
       -0.17278717 -0.053798508 -0.14382936 0.29377484
0001c0 0c 39 43 be a8 b0 94 be 88 62 52 be ae 52 dd 3d
       -0.1906473 -0.29041028 -0.20545399 0.108067855
0001d0 fa 74 28 3e a6 51 85 be 11 6b 4e be 59 72 af bd
       0.16450873 -0.26038855 -0.2015803 -0.08566732
0001e0 b4 52 79 3e fa fb bd bd 07 88 2b be da bc 7d be
       0.24347955 -0.09276576 -0.16751109 -0.24779072
0001f0 ed 7a ab 3d 71 b1 84 be b4 f1 1f bd ed 83 e4 bd
       0.083730556 -0.25916627 -0.039048865 -0.11157975
000200 fd 6b 10 3e b7 5f 28 3e d1 a0 eb 3d c3 11 9e bc
       0.14103694 0.16442762 0.11505283 -0.019295579
000210 76 fb a8 be 97 b7 8f 3e 99 2c 4f be 38 d0 a5 3e
       -0.3300435 0.28069755 -0.20231856 0.3238542
000220 55 04 5c 3e 2b e0 d8 bd ac 64 08 3e 7d 45 9f 3d
       0.21486028 -0.10589632 0.13319653 0.07776926
000230 a5 56 56 be 7f e3 74 3d 76 82 dc bd bc be 94 be
       -0.2093149 0.05978727 -0.10767071 -0.2905177
000240 ad b0 11 3e 3a 3d 50 3e 75 59 3d be f2 3c 5d be
       0.14227553 0.20335856 -0.18491156 -0.2160528
000250 f0 bc f5 bd b9 3d ef 3d 4c d4 1e be 3d 81 86 3e
       -0.119989276 0.116816945 -0.15510672 0.26270476
000260 a1 20 98 bd e4 d2 b8 bd 16 c6 25 be 56 e2 85 3e
       -0.074280985 -0.09024599 -0.16188845 0.26149243
000270 4d c2 8a be 04 e6 1e 3e 26 5e c4 bd 66 b4 5c be
       -0.27101365 0.15517431 -0.0958827 -0.21553192
000280 26 e9 84 3e c4 0b 37 be c7 a1 63 bd 13 89 40 bd
       0.25959128 -0.17875582 -0.055574205 -0.047005724
000290 52 fc 79 be e7 d8 16 3d ac d9 2b 3d c2 49 9e bd
       -0.24412659 0.036827948 0.041955635 -0.07728912
0002a0 d1 55 94 bd 4a 97 57 be d1 87 82 3d 01 75 a1 be
       -0.07242931 -0.21053806 0.06373561 -0.3153458
0002b0 0b ca bf 3d f8 01 84 3e 91 32 7c 3d 84 69 27 be
       0.093647085 0.25782752 0.06157166 -0.16348845
0002c0 2a 26 8e be 94 86 cf be ae 32 9e ba 01 a0 9c 3e
       -0.27763492 -0.40532362 -0.0012069547 0.30590823
0002d0 31 ef 65 be b3 2f d8 3d c4 f2 69 3e df fe 8f 3e
       -0.22454526 0.10555973 0.22846514 0.2812414
0002e0 53 e3 5d 3e a0 47 f8 bd c2 2a e9 3d f3 42 8c bd
       0.21668749 -0.121230364 0.113851085 -0.06848707
0002f0 a2 06 8e bd 5b 1e 0a 3e a3 41 28 bd d0 46 83 bd
       -0.06934859 0.13488142 -0.04107822 -0.06409991
000300 d3 7f ae be 1f 38 09 be 2f 2d 75 3e d9 73 db 3d
       -0.34081897 -0.13400315 0.23943017 0.107154556
000310 36 9e 98 3e 4e 98 9a be d4 c8 6e be be 24 1c bd
       0.29808205 -0.30194324 -0.23318797 -0.038120978
000320 bb 0c 3f be 8f af 0a 3e 81 20 5f 3e 62 ac 80 bd
       -0.186572 0.13543533 0.21789743 -0.062828794
000330 cb 71 90 be 11 c7 02 be 0b 90 5d bd 31 46 74 3e
       -0.28211817 -0.1277125 -0.05409245 0.23854901
000340 d7 96 76 3d 9e 32 8c 3d e5 1a 44 be a3 36 90 be
       0.060202446 0.06845592 -0.19150884 -0.28166685
000350 24 12 ab bb 08 ce 87 be fe e1 3d be b7 d7 61 3e
       -0.0052206684 -0.26524377 -0.1854324 0.22054945
000360 91 66 08 3e 20 ed 4f bd 22 81 89 3c 25 08 0a bd
       0.13320376 -0.05076325 0.016785208 -0.033699173
000370 94 30 af 3e aa 5a 14 3e 88 69 41 bc 3e 9c c9 3d
       0.3421675 0.1448771 -0.011804946 0.09844254
000380 d7 94 18 be 03 db 86 be 28 61 36 3e fa 01 3d 3e
       -0.14900528 -0.26338968 0.178105 0.18457785
000390 fb f9 1f 3e d1 92 5a be 95 4e 6c 3c 1d c8 1e be
       0.15622704 -0.21345069 0.014423032 -0.15506025
0003a0 f4 92 7b 3e af 89 57 be e8 ca 13 bd 18 29 06 be
       0.24567777 -0.21048616 -0.03608218 -0.13101614
0003b0 fd ee 46 3d 7b 37 98 3d 2a 9e af bd 42 b1 6d 3d
       0.04856776 0.07432457 -0.08575089 0.058030374
0003c0 28 23 82 be 0e c2 34 be 23 96 8f be 5c 0d 8e bc
       -0.25417447 -0.17652151 -0.28044233 -0.017340355
0003d0 c7 3a 80 be 5f fd 08 be 40 2f c1 3b 38 f1 a1 3e
       -0.25044844 -0.13377903 0.005895525 0.31629348
0003e0 a9 b5 3e be 10 c3 67 be 96 53 a9 be 9d ff 78 3e
       -0.18623985 -0.22633004 -0.33071584 0.24316259
0003f0 92 d2 e3 bd 5f f1 45 bd 24 82 6a be d5 3e 7a 3e
       -0.111241475 -0.048325893 -0.22901207 0.24438031
